…
    value: 0.95
gamma:
    value: 0.99
learning_rate:
    value: 0.0001
lr_schedule:
    value: <function get_schedule_fn.<locals>.<lambda> at 0x7a49e72cec00>
max_grad_norm:
    value: 0.5
mean_reward_bound:
    value: 19
model_name:
    value: ppo_pong_costum_settings
n_envs:
    value: 1
n_epochs:
    value: 4
n_steps:
    value: 128
normalize_advantage:
    value: "True"
num_timesteps:
    value: 0
observation_space:
    value: Box(0.0, 1.0, (4, 84, 84), float32)
policy:
    value: |-
        ActorCriticCnnPolicy(
          (features_extractor): NatureCNN(
            (cnn): Sequential(
              (0): Conv2d(4, 32, kernel_size=(8, 8), stride=(4, 4))
              (1): ReLU()
              (2): Conv2d(32, 64, kernel_size=(4, 4), stride=(2, 2))
              (3): ReLU()
              (4): Conv2d(64, 64, kernel_size=(3, 3), stride=(1, 1))
              (5): ReLU()
              (6): Flatten(start_dim=1, end_dim=-1)
            )
            (linear): Sequential(
              (0): Linear(in_features=3136, out_features=512, bias=True)
              (1): ReLU()
            )
          )
          (pi_features_extractor): NatureCNN(
            (cnn): Sequential(
              (0): Conv2d(4, 32, kernel_size=(8, 8), stride=(4, 4))
              (1): ReLU()
              (2): Conv2d(32, 64, kernel_size=(4, 4), stride=(2, 2))
              (3): ReLU()
              (4): Conv2d(64, 64, kernel_size=(3, 3), stride=(1, 1))
              (5): ReLU()
              (6): Flatten(start_dim=1, end_dim=-1)
            )
            (linear): Sequential(
              (0): Linear(in_features=3136, out_features=512, bias=True)
              (1): ReLU()
            )
          )
          (vf_features_extractor): NatureCNN(
            (cnn): Sequential(
              (0): Conv2d(4, 32, kernel_size=(8, 8), stride=(4, 4))
              (1): ReLU()
              (2): Conv2d(32, 64, kernel_size=(4, 4), stride=(2, 2))
              (3): ReLU()
              (4): Conv2d(64, 64, kernel_size=(3, 3), stride=(1, 1))
              (5): ReLU()
              (6): Flatten(start_dim=1, end_dim=-1)
            )
            (linear): Sequential(
              (0): Linear(in_features=3136, out_features=512, bias=True)
              (1): ReLU()
            )
          )
          (mlp_extractor): MlpExtractor(
            (policy_net): Sequential()
            (value_net): Sequential()
          )
          (action_net): Linear(in_features=512, out_features=6, bias=True)
          (value_net): Linear(in_features=512, out_features=1, bias=True)
        )
policy_class:
    value: <class 'stable_baselines3.common.policies.ActorCriticCnnPolicy'>
policy_kwargs:
    value: '{''normalize_images'': False}'
project_name:
    value: Step2-RLProject
reward_window:
    value: 10
rollout_buffer:
    value: <stable_baselines3.common.buffers.RolloutBuffer object at 0x7a49f3c81990>
rollout_buffer_class:
    value: <class 'stable_baselines3.common.buffers.RolloutBuffer'>
…
